…
GOhTyyd1oDt","outputId":"1d349cba-0d7c-49cf-ea03-0a60d2481dfd","colab":{"base_uri":"https://localhost:8080/"},"executionInfo":{"status":"ok","timestamp":1667284256399,"user_tz":-330,"elapsed":50,"user":{"displayName":"Peratchi Srinitish.K","userId":"11236112019634156948"}}},"outputs":[{"output_type":"stream","name":"stdout","text":["Model: \"sequential\"\n","_________________________________________________________________\n"," Layer (type)                Output Shape              Param #   \n","=================================================================\n"," conv2d (Conv2D)             (None, 62, 62, 32)        896       \n","                                                                 \n"," max_pooling2d (MaxPooling2D  (None, 31, 31, 32)       0         \n"," )                                                               \n","                                                                 \n"," conv2d_1 (Conv2D)           (None, 29, 29, 32)        9248      \n","                                                                 \n"," conv2d_2 (Conv2D)           (None, 27, 27, 32)        9248      \n","                                                                 \n"," max_pooling2d_1 (MaxPooling  (None, 13, 13, 32)       0         \n"," 2D)                                                             \n","                                                                 \n"," conv2d_3 (Conv2D)           (None, 11, 11, 32)        9248      \n","                                                                 \n"," flatten (Flatten)           (None, 3872)              0         \n","                                                                 \n"," dense (Dense)               (None, 128)               495744    \n","                                                                 \n"," dense_1 (Dense)             (None, 4)                 516       \n","                                                                 \n","=================================================================\n","Total params: 524,900\n","Trainable params: 524,900\n","Non-trainable params: 0\n","_________________________________________________________________\n"]}],"source":["classifier.summary()#summary of our model"]},{"cell_type":"markdown","metadata":{
…
